{
  "instance_id": "pytorch__pytorch-183756",
  "repo": "pytorch/pytorch",
  "issue_numbers": [
    "180264"
  ],
  "pull_number": 183756,
  "base_commit": "f8b4a0feb49bcbe77711e03a53a42240cce4956f",
  "problem_statement": "DISABLED test_jacrev_two_tensors_argnums (__main__.FuncTorchHigherOrderOpTestsWithCompiledAutograd)\n\nPlatforms: linux, slow\n\n  This test was disabled because it is failing in CI. See [recent examples](https://hud.pytorch.org/flakytest?name=test_jacrev_two_tensors_argnums&suite=FuncTorchHigherOrderOpTestsWithCompiledAutograd&limit=100) and the most recent trunk [workflow logs](https://github.com/pytorch/pytorch/runs/71055633344).\n\n  Over the past 6 hours, it has been determined flaky in 45 workflow(s) with 90 failures and 45 successes.\n\n  **Debugging instructions (after clicking on the recent samples link):**\n  DO NOT ASSUME THINGS ARE OKAY IF THE CI IS GREEN. We now shield flaky tests from developers so CI will thus be green but it will be harder to parse the logs.\n  To find relevant log snippets:\n  1. Click on the workflow logs linked above\n  2. Click on the Test step of the job so that it is expanded. Otherwise, the grepping will not work.\n  3. Grep for `test_jacrev_two_tensors_argnums`\n  4. There should be several instances run (as flaky tests are rerun in CI) from which you can study the logs.\n  \n  \n\n<details><summary>Sample error message</summary>\n\n```\nTraceback (most recent call last):\n  File \"/var/lib/jenkins/workspace/test/dynamo/test_higher_order_ops.py\", line 4136, in test_jacrev_two_tensors_argnums\n    self.assertExpectedInline(\n  File \"/opt/conda/envs/py_3.10/lib/python3.10/site-packages/torch/testing/_internal/common_utils.py\", line 3387, in assertExpectedInline\n    return super().assertExpectedInline(actual if isinstance(actual, str) else str(actual), expect, skip + 1)\n  File \"/opt/conda/envs/py_3.10/lib/python3.10/site-packages/expecttest/__init__.py\", line 413, in assertExpectedInline\n    assert_expected_inline(\n  File \"/opt/conda/envs/py_3.10/lib/python3.10/site-packages/expecttest/__init__.py\", line 378, in assert_expected_inline\n    assert_eq(expect, actual, msg=help_text)\n  File \"/opt/conda/envs/py_3.10/lib/python3.10/site-packages/expecttest/__init__.py\", line 450, in assertMultiLineEqualMaybeCppStack\n    self.assertMultiLineEqual(expect, actual, *args, **kwargs)\n  File \"/opt/conda/envs/py_3.10/lib/python3.10/unittest/case.py\", line 1226, in assertMultiLineEqual\n    self.fail(self._formatMessage(msg, standardMsg))\n  File \"/opt/conda/envs/py_3.10/lib/python3.10/unittest/case.py\", line 675, in fail\n    raise self.failureException(msg)\nAssertionError: 'clas[1606 chars](12,))\\n        cumsum: \"i64[1]\" = tensor.cums[1693 chars],)\\n' != 'clas[1606 chars](12,), device = device(type=\\'cpu\\'))\\n       [1730 chars],)\\n'\n  class GraphModule(torch.nn.Module):\n      def forward(self, L_x_: \"f32[4, 3]\", L_y_: \"f32[3, 4]\"):\n          l_x_ = L_x_\n          l_y_ = L_y_\n  \n          _saved_tensors_hooks_disable = torch._C._autograd._saved_tensors_hooks_disable(\"torch.func.{grad, vjp, jacrev, hessian} don't yet support saved tensor hooks. Please open an issue with your use case.\");  _saved_tensors_hooks_disable = None\n          _grad_increment_nesting = torch._C._functorch._grad_increment_nesting();  _grad_increment_nesting = None\n  \n          _wrap_for_grad: \"f32[4, 3]\" = torch._C._functorch._wrap_for_grad(l_x_, 1);  l_x_ = _wrap_for_grad = None\n          diff_primals: \"f32[3, 4]\" = torch._C._functorch._wrap_for_grad(l_y_, 1);  l_y_ = None\n  \n          set_inplace_requires_grad_allowed = torch._C._functorch.set_inplace_requires_grad_allowed(True);  set_inplace_requires_grad_allowed = None\n  \n          _set_tensor_requires_grad: \"f32[3, 4]\" = torch._functorch.eager_transforms._set_tensor_requires_grad(diff_primals);  _set_tensor_requires_grad = None\n  \n          set_inplace_requires_grad_allowed_1 = torch._C._functorch.set_inplace_requires_grad_allowed(False);  set_inplace_requires_grad_allowed_1 = None\n  \n          primals_out: \"f32[3, 4]\" = diff_primals.sin()\n  \n          results: \"f32[3, 4]\" = torch._C._functorch._unwrap_for_grad(primals_out, 1)\n  \n          _grad_decrement_nesting = torch._C._functorch._grad_decrement_nesting();  _grad_decrement_nesting = None\n          _saved_tensors_hooks_enable = torch._C._autograd._saved_tensors_hooks_enable();  _saved_tensors_hooks_enable = None\n  \n-         tensor: \"i64[1]\" = torch.tensor((12,))\n+         tensor: \"i64[1]\" = torch.tensor((12,), device = device(type='cpu'))\n?                                              +++++++++++++++++++++++++++++\n          cumsum: \"i64[1]\" = tensor.cumsum(dim = 0);  tensor = None\n          getitem: \"i64[0]\" = cumsum[slice(None, -1, None)];  cumsum = None\n          neg: \"i64[0]\" = getitem.neg();  getitem = None\n          unbind = neg.unbind();  neg = unbind = None\n- \n          chunk: \"f32[12, 12]\" = results.new_zeros(12, 12);  results = None\n- \n          diagonal: \"f32[12]\" = chunk.diagonal(0)\n          fill_: \"f32[12]\" = diagonal.fill_(1);  diagonal = fill_ = None\n- \n          basis: \"f32[12, 3, 4]\" = chunk.view(12, 3, 4);  chunk = None\n  \n          lazy_load_decompositions = torch._functorch.predispatch.lazy_load_decompositions();  lazy_load_decompositions = None\n  \n          _vmap_increment_nesting = torch._functorch.predispatch._vmap_increment_nesting(12, 'error');  _vmap_increment_nesting = None\n  \n          _add_batch_dim: \"f32[3, 4]\" = torch._functorch.predispatch._add_batch_dim(basis, 0, 1);  basis = None\n  \n          _autograd_grad = torch._functorch.eager_transforms._autograd_grad([primals_out], [diff_primals], [_add_batch_dim], retain_graph = True, create_graph = True);  primals_out = diff_primals = _add_batch_dim = None\n          batched_outputs: \"f32[3, 4]\" = _autograd_grad[0];  _autograd_grad = None\n  \n          chunked_result: \"f32[12, 3, 4]\" = torch._functorch.predispatch._remove_batch_dim(batched_outputs, 1, 12, 0);  batched_outputs = None\n  \n          _vmap_decrement_nesting = torch._functorch.predispatch._vmap_decrement_nesting();  _vmap_decrement_nesting = None\n  \n-         split = chunked_result.split((12,), dim = 0);  chunked_result = None\n?                               ^^^^^^^\n+         split = torch.Tensor.split(chunked_result, (12,), dim = 0);  chunked_result = None\n?                 +++++++++++++++++++              ^^\n          split_1: \"f32[12, 3, 4]\" = split[0];  split = None\n- \n          output_input: \"f32[3, 4, 3, 4]\" = split_1.view((3, 4, 3, 4));  split_1 = None\n          return (output_input,)\n : To accept the new output, re-run test with envvar EXPECTTEST_ACCEPT=1 (we recommend staging/committing your changes before doing this)\n\nTo execute this test, run the following from the base repo dir:\n    python test/dynamo/test_higher_order_ops.py FuncTorchHigherOrderOpTestsWithCompiledAutograd.test_jacrev_two_tensors_argnums\n\nThis message can be suppressed by setting PYTORCH_PRINT_REPRO_ON_FAILURE=0\n```\n\n</details>\n\n\n  Test file path: `inductor/test_compiled_autograd.py`\n\n  For all disabled tests (by GitHub issue), see https://hud.pytorch.org/disabled.\n\ncc @voznesenskym @penguinwu @EikanWang @jgong5 @Guobing-Chen @XiaobingSuper @zhuhaozhe @blzheng @wenzhe-nrv @jiayisunx @ipiszy @kadeng @muchulee8 @amjames @chauhang @aakhundov @coconutruben @jataylo",
  "patch": "diff --git a/torch/_functorch/eager_transforms.py b/torch/_functorch/eager_transforms.py\nindex b3dc022cb7673..1e35858f3a829 100644\n--- a/torch/_functorch/eager_transforms.py\n+++ b/torch/_functorch/eager_transforms.py\n@@ -778,7 +778,7 @@ def compute_jacobian_preallocate_and_copy() -> list[Any]:\n         # Step 2: The returned jacobian is one big tensor per input. In this step,\n         # we split each Tensor by output.\n         flat_jacobians_per_input = [\n-            result.split(flat_output_numels, dim=0)\n+            torch.split(result, list(flat_output_numels), dim=0)\n             for result in flat_jacobians_per_input\n         ]\n         flat_input_flat_output = [\n@@ -897,10 +897,11 @@ def _chunked_standard_basis_for_(\n         chunk_size = total_numel\n         chunk_numels = [total_numel]\n \n-    diag_start_indices = (\n-        0,\n-        *torch.tensor(tensor_numels).cumsum(dim=0)[:-1].neg().unbind(),\n-    )\n+    diag_start_indices = []\n+    diag_start_idx = 0\n+    for tensor_numel in tensor_numels:\n+        diag_start_indices.append(diag_start_idx)\n+        diag_start_idx -= tensor_numel\n \n     for chunk_idx, total_numel in enumerate(chunk_numels):\n         chunks = tuple(\n@@ -1405,7 +1406,9 @@ def push_jvp(basis: Any) -> Any:\n                 safe_unflatten(jac_out_in, -1, primal.shape)\n                 for primal, jac_out_in in zip(\n                     flat_primals,\n-                    jac_out.movedim(0, -1).split(flat_primals_numels, dim=-1),\n+                    torch.split(\n+                        jac_out.movedim(0, -1), list(flat_primals_numels), dim=-1\n+                    ),\n                 )\n             )\n             for jac_out in jac_outs\n",
  "test_patch": "diff --git a/test/dynamo/test_higher_order_ops.py b/test/dynamo/test_higher_order_ops.py\nindex 2fa57917895b8..ff751a6a94b9e 100644\n--- a/test/dynamo/test_higher_order_ops.py\n+++ b/test/dynamo/test_higher_order_ops.py\n@@ -3840,12 +3840,6 @@ class GraphModule(torch.nn.Module):\n     def forward(self, L_x_: \"f32[4, 3]\"):\n         l_x_ = L_x_\n \n-        tensor: \"i64[1]\" = torch.tensor((12,))\n-        cumsum: \"i64[1]\" = tensor.cumsum(dim = 0);  tensor = None\n-        getitem: \"i64[0]\" = cumsum[slice(None, -1, None)];  cumsum = None\n-        neg: \"i64[0]\" = getitem.neg();  getitem = None\n-        unbind = neg.unbind();  neg = unbind = None\n-\n         chunk: \"f32[12, 12]\" = l_x_.new_zeros(12, 12)\n \n         diagonal: \"f32[12]\" = chunk.diagonal(0)\n@@ -3887,12 +3881,6 @@ def forward(self, L_x_: \"f32[4, 3]\"):\n         _grad_decrement_nesting = torch._C._functorch._grad_decrement_nesting();  _grad_decrement_nesting = None\n         _saved_tensors_hooks_enable = torch._C._autograd._saved_tensors_hooks_enable();  _saved_tensors_hooks_enable = None\n \n-        tensor_1: \"i64[1]\" = torch.tensor((12,))\n-        cumsum_1: \"i64[1]\" = tensor_1.cumsum(dim = 0);  tensor_1 = None\n-        getitem_1: \"i64[0]\" = cumsum_1[slice(None, -1, None)];  cumsum_1 = None\n-        neg_1: \"i64[0]\" = getitem_1.neg();  getitem_1 = None\n-        unbind_1 = neg_1.unbind();  neg_1 = unbind_1 = None\n-\n         chunk_1: \"f32[12, 12]\" = results.new_zeros(12, 12);  results = None\n \n         diagonal_1: \"f32[12]\" = chunk_1.diagonal(0)\n@@ -3913,7 +3901,7 @@ def forward(self, L_x_: \"f32[4, 3]\"):\n \n         _vmap_decrement_nesting = torch._functorch.predispatch._vmap_decrement_nesting();  _vmap_decrement_nesting = None\n \n-        split = chunked_result.split((12,), dim = 0);  chunked_result = None\n+        split = torch.functional.split(chunked_result, [12], dim = 0);  chunked_result = None\n         split_1: \"f32[12, 4, 3]\" = split[0];  split = None\n \n         output_input: \"f32[4, 3, 4, 3]\" = split_1.view((4, 3, 4, 3));  split_1 = None\n@@ -3934,7 +3922,8 @@ def forward(self, L_x_: \"f32[4, 3]\"):\n         _vmap_decrement_nesting_1 = torch._functorch.predispatch._vmap_decrement_nesting();  _vmap_decrement_nesting_1 = None\n \n         movedim: \"f32[4, 3, 4, 3, 12]\" = results_1.movedim(0, -1);  results_1 = None\n-        split_2 = movedim.split((12,), dim = -1);  movedim = None\n+\n+        split_2 = torch.functional.split(movedim, [12], dim = -1);  movedim = None\n         jac_out_in: \"f32[4, 3, 4, 3, 12]\" = split_2[0];  split_2 = None\n \n         unflatten: \"f32[4, 3, 4, 3, 4, 3]\" = jac_out_in.unflatten(-1, (4, 3));  jac_out_in = None\n@@ -3967,12 +3956,6 @@ def forward(self, L_x_: \"f32[4, 3]\", L_y_: \"f32[3, 4]\"):\n         l_x_ = L_x_\n         l_y_ = L_y_\n \n-        tensor: \"i64[1]\" = torch.tensor((12,))\n-        cumsum: \"i64[1]\" = tensor.cumsum(dim = 0);  tensor = None\n-        getitem: \"i64[0]\" = cumsum[slice(None, -1, None)];  cumsum = None\n-        neg: \"i64[0]\" = getitem.neg();  getitem = None\n-        unbind = neg.unbind();  neg = unbind = None\n-\n         chunk: \"f32[12, 12]\" = l_y_.new_zeros(12, 12)\n \n         diagonal: \"f32[12]\" = chunk.diagonal(0)\n@@ -4016,12 +3999,6 @@ def forward(self, L_x_: \"f32[4, 3]\", L_y_: \"f32[3, 4]\"):\n         _grad_decrement_nesting = torch._C._functorch._grad_decrement_nesting();  _grad_decrement_nesting = None\n         _saved_tensors_hooks_enable = torch._C._autograd._saved_tensors_hooks_enable();  _saved_tensors_hooks_enable = None\n \n-        tensor_1: \"i64[1]\" = torch.tensor((12,))\n-        cumsum_1: \"i64[1]\" = tensor_1.cumsum(dim = 0);  tensor_1 = None\n-        getitem_1: \"i64[0]\" = cumsum_1[slice(None, -1, None)];  cumsum_1 = None\n-        neg_1: \"i64[0]\" = getitem_1.neg();  getitem_1 = None\n-        unbind_1 = neg_1.unbind();  neg_1 = unbind_1 = None\n-\n         chunk_1: \"f32[12, 12]\" = results.new_zeros(12, 12);  results = None\n \n         diagonal_1: \"f32[12]\" = chunk_1.diagonal(0)\n@@ -4042,7 +4019,7 @@ def forward(self, L_x_: \"f32[4, 3]\", L_y_: \"f32[3, 4]\"):\n \n         _vmap_decrement_nesting = torch._functorch.predispatch._vmap_decrement_nesting();  _vmap_decrement_nesting = None\n \n-        split = child_6.split((12,), dim = 0);  child_6 = None\n+        split = torch.functional.split(child_6, [12], dim = 0);  child_6 = None\n         split_1: \"f32[12, 3, 4]\" = split[0];  split = None\n \n         child_7: \"f32[4, 3, 3, 4]\" = split_1.view((4, 3, 3, 4));  split_1 = None\n@@ -4064,7 +4041,8 @@ def forward(self, L_x_: \"f32[4, 3]\", L_y_: \"f32[3, 4]\"):\n         _vmap_decrement_nesting_1 = torch._functorch.predispatch._vmap_decrement_nesting();  _vmap_decrement_nesting_1 = None\n \n         movedim: \"f32[4, 3, 3, 4, 12]\" = child_10.movedim(0, -1);  child_10 = None\n-        split_2 = movedim.split((12,), dim = -1);  movedim = None\n+\n+        split_2 = torch.functional.split(movedim, [12], dim = -1);  movedim = None\n         jac_out_in: \"f32[4, 3, 3, 4, 12]\" = split_2[0];  split_2 = None\n \n         unflatten: \"f32[4, 3, 3, 4, 3, 4]\" = jac_out_in.unflatten(-1, (3, 4));  jac_out_in = None\"\"\",\n@@ -4113,12 +4091,6 @@ def forward(self, L_x_: \"f32[4, 3]\"):\n         _grad_decrement_nesting = torch._C._functorch._grad_decrement_nesting();  _grad_decrement_nesting = None\n         _saved_tensors_hooks_enable = torch._C._autograd._saved_tensors_hooks_enable();  _saved_tensors_hooks_enable = None\n \n-        tensor: \"i64[1]\" = torch.tensor((12,))\n-        cumsum: \"i64[1]\" = tensor.cumsum(dim = 0);  tensor = None\n-        getitem: \"i64[0]\" = cumsum[slice(None, -1, None)];  cumsum = None\n-        neg: \"i64[0]\" = getitem.neg();  getitem = None\n-        unbind = neg.unbind();  neg = unbind = None\n-\n         chunk: \"f32[12, 12]\" = results.new_zeros(12, 12);  results = None\n \n         diagonal: \"f32[12]\" = chunk.diagonal(0)\n@@ -4139,7 +4111,7 @@ def forward(self, L_x_: \"f32[4, 3]\"):\n \n         _vmap_decrement_nesting = torch._functorch.predispatch._vmap_decrement_nesting();  _vmap_decrement_nesting = None\n \n-        split = chunked_result.split((12,), dim = 0);  chunked_result = None\n+        split = torch.functional.split(chunked_result, [12], dim = 0);  chunked_result = None\n         split_1: \"f32[12, 4, 3]\" = split[0];  split = None\n \n         output_input: \"f32[4, 3, 4, 3]\" = split_1.view((4, 3, 4, 3));  split_1 = None\n@@ -4164,9 +4136,7 @@ def wrapper_fn(x, y):\n             return\n \n         actual = normalize_gm(wrapped_gm.print_readable(print_output=False))\n-        self.assertExpectedInline(\n-            actual,\n-            \"\"\"\\\n+        expected = \"\"\"\\\n class GraphModule(torch.nn.Module):\n     def forward(self, L_x_: \"f32[4, 3]\", L_y_: \"f32[3, 4]\"):\n         l_x_ = L_x_\n@@ -4191,12 +4161,6 @@ def forward(self, L_x_: \"f32[4, 3]\", L_y_: \"f32[3, 4]\"):\n         _grad_decrement_nesting = torch._C._functorch._grad_decrement_nesting();  _grad_decrement_nesting = None\n         _saved_tensors_hooks_enable = torch._C._autograd._saved_tensors_hooks_enable();  _saved_tensors_hooks_enable = None\n \n-        tensor: \"i64[1]\" = torch.tensor((12,))\n-        cumsum: \"i64[1]\" = tensor.cumsum(dim = 0);  tensor = None\n-        getitem: \"i64[0]\" = cumsum[slice(None, -1, None)];  cumsum = None\n-        neg: \"i64[0]\" = getitem.neg();  getitem = None\n-        unbind = neg.unbind();  neg = unbind = None\n-\n         chunk: \"f32[12, 12]\" = results.new_zeros(12, 12);  results = None\n \n         diagonal: \"f32[12]\" = chunk.diagonal(0)\n@@ -4217,12 +4181,15 @@ def forward(self, L_x_: \"f32[4, 3]\", L_y_: \"f32[3, 4]\"):\n \n         _vmap_decrement_nesting = torch._functorch.predispatch._vmap_decrement_nesting();  _vmap_decrement_nesting = None\n \n-        split = chunked_result.split((12,), dim = 0);  chunked_result = None\n+        split = torch.functional.split(chunked_result, [12], dim = 0);  chunked_result = None\n         split_1: \"f32[12, 3, 4]\" = split[0];  split = None\n \n         output_input: \"f32[3, 4, 3, 4]\" = split_1.view((3, 4, 3, 4));  split_1 = None\n         return (output_input,)\n-\"\"\",\n+\"\"\"\n+        self.assertExpectedInline(\n+            empty_line_normalizer(actual),\n+            empty_line_normalizer(normalize_gm(expected)),\n         )\n \n     def test_jacrev_has_aux(self):\n@@ -4270,12 +4237,6 @@ def forward(self, L_x_: \"f32[4, 3]\", L_y_: \"f32[3, 4]\"):\n         _grad_decrement_nesting = torch._C._functorch._grad_decrement_nesting();  _grad_decrement_nesting = None\n         _saved_tensors_hooks_enable = torch._C._autograd._saved_tensors_hooks_enable();  _saved_tensors_hooks_enable = None\n \n-        tensor: \"i64[1]\" = torch.tensor((12,))\n-        cumsum: \"i64[1]\" = tensor.cumsum(dim = 0);  tensor = None\n-        getitem: \"i64[0]\" = cumsum[slice(None, -1, None)];  cumsum = None\n-        neg: \"i64[0]\" = getitem.neg();  getitem = None\n-        unbind = neg.unbind();  neg = unbind = None\n-\n         chunk: \"f32[12, 12]\" = results.new_zeros(12, 12);  results = None\n \n         diagonal: \"f32[12]\" = chunk.diagonal(0)\n@@ -4296,7 +4257,7 @@ def forward(self, L_x_: \"f32[4, 3]\", L_y_: \"f32[3, 4]\"):\n \n         _vmap_decrement_nesting = torch._functorch.predispatch._vmap_decrement_nesting();  _vmap_decrement_nesting = None\n \n-        split = chunked_result.split((12,), dim = 0);  chunked_result = None\n+        split = torch.functional.split(chunked_result, [12], dim = 0);  chunked_result = None\n         split_1: \"f32[12, 3, 4]\" = split[0];  split = None\n \n         output_input: \"f32[3, 4, 3, 4]\" = split_1.view((3, 4, 3, 4));  split_1 = None\n@@ -5254,12 +5215,6 @@ class GraphModule(torch.nn.Module):\n     def forward(self, L_x_: \"f32[4, 3]\"):\n         l_x_ = L_x_\n \n-        tensor: \"i64[1]\" = torch.tensor((12,))\n-        cumsum: \"i64[1]\" = tensor.cumsum(dim = 0);  tensor = None\n-        getitem: \"i64[0]\" = cumsum[slice(None, -1, None)];  cumsum = None\n-        neg: \"i64[0]\" = getitem.neg();  getitem = None\n-        unbind = neg.unbind();  neg = unbind = None\n-\n         chunk: \"f32[12, 12]\" = l_x_.new_zeros(12, 12)\n \n         diagonal: \"f32[12]\" = chunk.diagonal(0)\n@@ -5301,7 +5256,8 @@ def forward(self, L_x_: \"f32[4, 3]\"):\n         _vmap_decrement_nesting = torch._functorch.predispatch._vmap_decrement_nesting();  _vmap_decrement_nesting = None\n \n         movedim: \"f32[4, 3, 12]\" = results.movedim(0, -1);  results = None\n-        split = movedim.split((12,), dim = -1);  movedim = None\n+\n+        split = torch.functional.split(movedim, [12], dim = -1);  movedim = None\n         jac_out_in: \"f32[4, 3, 12]\" = split[0];  split = None\n \n         unflatten: \"f32[4, 3, 4, 3]\" = jac_out_in.unflatten(-1, (4, 3));  jac_out_in = None\n@@ -5334,12 +5290,6 @@ def forward(self, L_x_: \"f32[4, 3]\", L_y_: \"f32[3, 4]\"):\n         l_x_ = L_x_\n         l_y_ = L_y_\n \n-        tensor: \"i64[1]\" = torch.tensor((12,))\n-        cumsum: \"i64[1]\" = tensor.cumsum(dim = 0);  tensor = None\n-        getitem: \"i64[0]\" = cumsum[slice(None, -1, None)];  cumsum = None\n-        neg: \"i64[0]\" = getitem.neg();  getitem = None\n-        unbind = neg.unbind();  neg = unbind = None\n-\n         chunk: \"f32[12, 12]\" = l_y_.new_zeros(12, 12)\n \n         diagonal: \"f32[12]\" = chunk.diagonal(0)\n@@ -5382,7 +5332,8 @@ def forward(self, L_x_: \"f32[4, 3]\", L_y_: \"f32[3, 4]\"):\n         _vmap_decrement_nesting = torch._functorch.predispatch._vmap_decrement_nesting();  _vmap_decrement_nesting = None\n \n         movedim: \"f32[3, 4, 12]\" = results.movedim(0, -1);  results = None\n-        split = movedim.split((12,), dim = -1);  movedim = None\n+\n+        split = torch.functional.split(movedim, [12], dim = -1);  movedim = None\n         jac_out_in: \"f32[3, 4, 12]\" = split[0];  split = None\n \n         unflatten: \"f32[3, 4, 3, 4]\" = jac_out_in.unflatten(-1, (3, 4));  jac_out_in = None\n@@ -5415,12 +5366,6 @@ def forward(self, L_x_: \"f32[4, 3]\", L_y_: \"f32[3, 4]\"):\n         l_x_ = L_x_\n         l_y_ = L_y_\n \n-        tensor: \"i64[1]\" = torch.tensor((12,))\n-        cumsum: \"i64[1]\" = tensor.cumsum(dim = 0);  tensor = None\n-        getitem: \"i64[0]\" = cumsum[slice(None, -1, None)];  cumsum = None\n-        neg: \"i64[0]\" = getitem.neg();  getitem = None\n-        unbind = neg.unbind();  neg = unbind = None\n-\n         chunk: \"f32[12, 12]\" = l_y_.new_zeros(12, 12)\n \n         diagonal: \"f32[12]\" = chunk.diagonal(0)\n@@ -5468,7 +5413,8 @@ def forward(self, L_x_: \"f32[4, 3]\", L_y_: \"f32[3, 4]\"):\n         aux_3: \"f32[4, 3]\" = aux_2[0];  aux_2 = None\n \n         movedim: \"f32[3, 4, 12]\" = results.movedim(0, -1);  results = None\n-        split = movedim.split((12,), dim = -1);  movedim = None\n+\n+        split = torch.functional.split(movedim, [12], dim = -1);  movedim = None\n         jac_out_in: \"f32[3, 4, 12]\" = split[0];  split = None\n \n         unflatten: \"f32[3, 4, 3, 4]\" = jac_out_in.unflatten(-1, (3, 4));  jac_out_in = None\n@@ -5501,12 +5447,6 @@ def forward(self, L_x_: \"f32[4, 3]\", L_y_: \"f32[3, 4]\"):\n         l_x_ = L_x_\n         l_y_ = L_y_\n \n-        tensor: \"i64[1]\" = torch.tensor((12,))\n-        cumsum: \"i64[1]\" = tensor.cumsum(dim = 0);  tensor = None\n-        getitem: \"i64[0]\" = cumsum[slice(None, -1, None)];  cumsum = None\n-        neg: \"i64[0]\" = getitem.neg();  getitem = None\n-        unbind = neg.unbind();  neg = unbind = None\n-\n         chunk: \"f32[12, 12]\" = l_x_.new_zeros(12, 12)\n \n         diagonal: \"f32[12]\" = chunk.diagonal(0)\n@@ -5557,13 +5497,15 @@ def forward(self, L_x_: \"f32[4, 3]\", L_y_: \"f32[3, 4]\"):\n         _vmap_decrement_nesting = torch._functorch.predispatch._vmap_decrement_nesting();  _vmap_decrement_nesting = None\n \n         movedim: \"f32[3, 4, 12]\" = child_8.movedim(0, -1);  child_8 = None\n-        split = movedim.split((12,), dim = -1);  movedim = None\n+\n+        split = torch.functional.split(movedim, [12], dim = -1);  movedim = None\n         jac_out_in: \"f32[3, 4, 12]\" = split[0];  split = None\n \n         unflatten: \"f32[3, 4, 4, 3]\" = jac_out_in.unflatten(-1, (4, 3));  jac_out_in = None\n \n         movedim_1: \"f32[4, 3, 12]\" = child_9.movedim(0, -1);  child_9 = None\n-        split_1 = movedim_1.split((12,), dim = -1);  movedim_1 = None\n+\n+        split_1 = torch.functional.split(movedim_1, [12], dim = -1);  movedim_1 = None\n         jac_out_in_1: \"f32[4, 3, 12]\" = split_1[0];  split_1 = None\n \n         unflatten_1: \"f32[4, 3, 4, 3]\" = jac_out_in_1.unflatten(-1, (4, 3));  jac_out_in_1 = None\n",
  "FAIL_TO_PASS": [
    "test/dynamo/test_higher_order_ops.py::FuncTorchHigherOrderOpTests::test_jacrev_has_aux"
  ],
  "PASS_TO_PASS": [
    "test/dynamo/test_higher_order_ops.py::HigherOrderOpTests::test_access_module_attr",
    "test/dynamo/test_higher_order_ops.py::HigherOrderOpTests::test_allow_python_side_effects_utility",
    "test/dynamo/test_higher_order_ops.py::HigherOrderOpTests::test_capture_constants",
    "test/dynamo/test_higher_order_ops.py::HigherOrderOpTests::test_capture_global_num",
    "test/dynamo/test_higher_order_ops.py::HigherOrderOpTests::test_capture_global_num_adds_guard",
    "test/dynamo/test_higher_order_ops.py::HigherOrderOpTests::test_capture_input_num",
    "test/dynamo/test_higher_order_ops.py::HigherOrderOpTests::test_capture_numpy_number",
    "test/dynamo/test_higher_order_ops.py::HigherOrderOpTests::test_capture_tracked",
    "test/dynamo/test_higher_order_ops.py::HigherOrderOpTests::test_capture_tracked_nested",
    "test/dynamo/test_higher_order_ops.py::HigherOrderOpTests::test_capture_untracked_global",
    "test/dynamo/test_higher_order_ops.py::HigherOrderOpTests::test_capture_untracked_global_nested",
    "test/dynamo/test_higher_order_ops.py::HigherOrderOpTests::test_capture_untracked_nonlocal",
    "test/dynamo/test_higher_order_ops.py::HigherOrderOpTests::test_capture_value_created_in_subgraph",
    "test/dynamo/test_higher_order_ops.py::HigherOrderOpTests::test_cond_free_variable_in_both_branches",
    "test/dynamo/test_higher_order_ops.py::HigherOrderOpTests::test_cond_graph_break_in_one_branch",
    "test/dynamo/test_higher_order_ops.py::HigherOrderOpTests::test_cond_pytree_operands",
    "test/dynamo/test_higher_order_ops.py::HigherOrderOpTests::test_cond_pytree_operands_with_non_tensor_leaves"
  ],
  "test_files": [
    "test/dynamo/test_higher_order_ops.py"
  ],
  "fix_files": [
    "torch/_functorch/eager_transforms.py"
  ],
  "created_at": "2026-05-17T13:19:07Z",
  "version": "era-8fabe0e",
  "quality": {
    "f2p_asserts_message_string": false
  }
}