diff --git a/test/dynamo/test_higher_order_ops.py b/test/dynamo/test_higher_order_ops.py
index 2fa57917895b8..ff751a6a94b9e 100644
--- a/test/dynamo/test_higher_order_ops.py
+++ b/test/dynamo/test_higher_order_ops.py
@@ -3840,12 +3840,6 @@ class GraphModule(torch.nn.Module):
     def forward(self, L_x_: "f32[4, 3]"):
         l_x_ = L_x_
 
-        tensor: "i64[1]" = torch.tensor((12,))
-        cumsum: "i64[1]" = tensor.cumsum(dim = 0);  tensor = None
-        getitem: "i64[0]" = cumsum[slice(None, -1, None)];  cumsum = None
-        neg: "i64[0]" = getitem.neg();  getitem = None
-        unbind = neg.unbind();  neg = unbind = None
-
         chunk: "f32[12, 12]" = l_x_.new_zeros(12, 12)
 
         diagonal: "f32[12]" = chunk.diagonal(0)
@@ -3887,12 +3881,6 @@ def forward(self, L_x_: "f32[4, 3]"):
         _grad_decrement_nesting = torch._C._functorch._grad_decrement_nesting();  _grad_decrement_nesting = None
         _saved_tensors_hooks_enable = torch._C._autograd._saved_tensors_hooks_enable();  _saved_tensors_hooks_enable = None
 
-        tensor_1: "i64[1]" = torch.tensor((12,))
-        cumsum_1: "i64[1]" = tensor_1.cumsum(dim = 0);  tensor_1 = None
-        getitem_1: "i64[0]" = cumsum_1[slice(None, -1, None)];  cumsum_1 = None
-        neg_1: "i64[0]" = getitem_1.neg();  getitem_1 = None
-        unbind_1 = neg_1.unbind();  neg_1 = unbind_1 = None
-
         chunk_1: "f32[12, 12]" = results.new_zeros(12, 12);  results = None
 
         diagonal_1: "f32[12]" = chunk_1.diagonal(0)
@@ -3913,7 +3901,7 @@ def forward(self, L_x_: "f32[4, 3]"):
 
         _vmap_decrement_nesting = torch._functorch.predispatch._vmap_decrement_nesting();  _vmap_decrement_nesting = None
 
-        split = chunked_result.split((12,), dim = 0);  chunked_result = None
+        split = torch.functional.split(chunked_result, [12], dim = 0);  chunked_result = None
         split_1: "f32[12, 4, 3]" = split[0];  split = None
 
         output_input: "f32[4, 3, 4, 3]" = split_1.view((4, 3, 4, 3));  split_1 = None
@@ -3934,7 +3922,8 @@ def forward(self, L_x_: "f32[4, 3]"):
         _vmap_decrement_nesting_1 = torch._functorch.predispatch._vmap_decrement_nesting();  _vmap_decrement_nesting_1 = None
 
         movedim: "f32[4, 3, 4, 3, 12]" = results_1.movedim(0, -1);  results_1 = None
-        split_2 = movedim.split((12,), dim = -1);  movedim = None
+
+        split_2 = torch.functional.split(movedim, [12], dim = -1);  movedim = None
         jac_out_in: "f32[4, 3, 4, 3, 12]" = split_2[0];  split_2 = None
 
         unflatten: "f32[4, 3, 4, 3, 4, 3]" = jac_out_in.unflatten(-1, (4, 3));  jac_out_in = None
@@ -3967,12 +3956,6 @@ def forward(self, L_x_: "f32[4, 3]", L_y_: "f32[3, 4]"):
         l_x_ = L_x_
         l_y_ = L_y_
 
-        tensor: "i64[1]" = torch.tensor((12,))
-        cumsum: "i64[1]" = tensor.cumsum(dim = 0);  tensor = None
-        getitem: "i64[0]" = cumsum[slice(None, -1, None)];  cumsum = None
-        neg: "i64[0]" = getitem.neg();  getitem = None
-        unbind = neg.unbind();  neg = unbind = None
-
         chunk: "f32[12, 12]" = l_y_.new_zeros(12, 12)
 
         diagonal: "f32[12]" = chunk.diagonal(0)
@@ -4016,12 +3999,6 @@ def forward(self, L_x_: "f32[4, 3]", L_y_: "f32[3, 4]"):
         _grad_decrement_nesting = torch._C._functorch._grad_decrement_nesting();  _grad_decrement_nesting = None
         _saved_tensors_hooks_enable = torch._C._autograd._saved_tensors_hooks_enable();  _saved_tensors_hooks_enable = None
 
-        tensor_1: "i64[1]" = torch.tensor((12,))
-        cumsum_1: "i64[1]" = tensor_1.cumsum(dim = 0);  tensor_1 = None
-        getitem_1: "i64[0]" = cumsum_1[slice(None, -1, None)];  cumsum_1 = None
-        neg_1: "i64[0]" = getitem_1.neg();  getitem_1 = None
-        unbind_1 = neg_1.unbind();  neg_1 = unbind_1 = None
-
         chunk_1: "f32[12, 12]" = results.new_zeros(12, 12);  results = None
 
         diagonal_1: "f32[12]" = chunk_1.diagonal(0)
@@ -4042,7 +4019,7 @@ def forward(self, L_x_: "f32[4, 3]", L_y_: "f32[3, 4]"):
 
         _vmap_decrement_nesting = torch._functorch.predispatch._vmap_decrement_nesting();  _vmap_decrement_nesting = None
 
-        split = child_6.split((12,), dim = 0);  child_6 = None
+        split = torch.functional.split(child_6, [12], dim = 0);  child_6 = None
         split_1: "f32[12, 3, 4]" = split[0];  split = None
 
         child_7: "f32[4, 3, 3, 4]" = split_1.view((4, 3, 3, 4));  split_1 = None
@@ -4064,7 +4041,8 @@ def forward(self, L_x_: "f32[4, 3]", L_y_: "f32[3, 4]"):
         _vmap_decrement_nesting_1 = torch._functorch.predispatch._vmap_decrement_nesting();  _vmap_decrement_nesting_1 = None
 
         movedim: "f32[4, 3, 3, 4, 12]" = child_10.movedim(0, -1);  child_10 = None
-        split_2 = movedim.split((12,), dim = -1);  movedim = None
+
+        split_2 = torch.functional.split(movedim, [12], dim = -1);  movedim = None
         jac_out_in: "f32[4, 3, 3, 4, 12]" = split_2[0];  split_2 = None
 
         unflatten: "f32[4, 3, 3, 4, 3, 4]" = jac_out_in.unflatten(-1, (3, 4));  jac_out_in = None""",
@@ -4113,12 +4091,6 @@ def forward(self, L_x_: "f32[4, 3]"):
         _grad_decrement_nesting = torch._C._functorch._grad_decrement_nesting();  _grad_decrement_nesting = None
         _saved_tensors_hooks_enable = torch._C._autograd._saved_tensors_hooks_enable();  _saved_tensors_hooks_enable = None
 
-        tensor: "i64[1]" = torch.tensor((12,))
-        cumsum: "i64[1]" = tensor.cumsum(dim = 0);  tensor = None
-        getitem: "i64[0]" = cumsum[slice(None, -1, None)];  cumsum = None
-        neg: "i64[0]" = getitem.neg();  getitem = None
-        unbind = neg.unbind();  neg = unbind = None
-
         chunk: "f32[12, 12]" = results.new_zeros(12, 12);  results = None
 
         diagonal: "f32[12]" = chunk.diagonal(0)
@@ -4139,7 +4111,7 @@ def forward(self, L_x_: "f32[4, 3]"):
 
         _vmap_decrement_nesting = torch._functorch.predispatch._vmap_decrement_nesting();  _vmap_decrement_nesting = None
 
-        split = chunked_result.split((12,), dim = 0);  chunked_result = None
+        split = torch.functional.split(chunked_result, [12], dim = 0);  chunked_result = None
         split_1: "f32[12, 4, 3]" = split[0];  split = None
 
         output_input: "f32[4, 3, 4, 3]" = split_1.view((4, 3, 4, 3));  split_1 = None
@@ -4164,9 +4136,7 @@ def wrapper_fn(x, y):
             return
 
         actual = normalize_gm(wrapped_gm.print_readable(print_output=False))
-        self.assertExpectedInline(
-            actual,
-            """\
+        expected = """\
 class GraphModule(torch.nn.Module):
     def forward(self, L_x_: "f32[4, 3]", L_y_: "f32[3, 4]"):
         l_x_ = L_x_
@@ -4191,12 +4161,6 @@ def forward(self, L_x_: "f32[4, 3]", L_y_: "f32[3, 4]"):
         _grad_decrement_nesting = torch._C._functorch._grad_decrement_nesting();  _grad_decrement_nesting = None
         _saved_tensors_hooks_enable = torch._C._autograd._saved_tensors_hooks_enable();  _saved_tensors_hooks_enable = None
 
-        tensor: "i64[1]" = torch.tensor((12,))
-        cumsum: "i64[1]" = tensor.cumsum(dim = 0);  tensor = None
-        getitem: "i64[0]" = cumsum[slice(None, -1, None)];  cumsum = None
-        neg: "i64[0]" = getitem.neg();  getitem = None
-        unbind = neg.unbind();  neg = unbind = None
-
         chunk: "f32[12, 12]" = results.new_zeros(12, 12);  results = None
 
         diagonal: "f32[12]" = chunk.diagonal(0)
@@ -4217,12 +4181,15 @@ def forward(self, L_x_: "f32[4, 3]", L_y_: "f32[3, 4]"):
 
         _vmap_decrement_nesting = torch._functorch.predispatch._vmap_decrement_nesting();  _vmap_decrement_nesting = None
 
-        split = chunked_result.split((12,), dim = 0);  chunked_result = None
+        split = torch.functional.split(chunked_result, [12], dim = 0);  chunked_result = None
         split_1: "f32[12, 3, 4]" = split[0];  split = None
 
         output_input: "f32[3, 4, 3, 4]" = split_1.view((3, 4, 3, 4));  split_1 = None
         return (output_input,)
-""",
+"""
+        self.assertExpectedInline(
+            empty_line_normalizer(actual),
+            empty_line_normalizer(normalize_gm(expected)),
         )
 
     def test_jacrev_has_aux(self):
@@ -4270,12 +4237,6 @@ def forward(self, L_x_: "f32[4, 3]", L_y_: "f32[3, 4]"):
         _grad_decrement_nesting = torch._C._functorch._grad_decrement_nesting();  _grad_decrement_nesting = None
         _saved_tensors_hooks_enable = torch._C._autograd._saved_tensors_hooks_enable();  _saved_tensors_hooks_enable = None
 
-        tensor: "i64[1]" = torch.tensor((12,))
-        cumsum: "i64[1]" = tensor.cumsum(dim = 0);  tensor = None
-        getitem: "i64[0]" = cumsum[slice(None, -1, None)];  cumsum = None
-        neg: "i64[0]" = getitem.neg();  getitem = None
-        unbind = neg.unbind();  neg = unbind = None
-
         chunk: "f32[12, 12]" = results.new_zeros(12, 12);  results = None
 
         diagonal: "f32[12]" = chunk.diagonal(0)
@@ -4296,7 +4257,7 @@ def forward(self, L_x_: "f32[4, 3]", L_y_: "f32[3, 4]"):
 
         _vmap_decrement_nesting = torch._functorch.predispatch._vmap_decrement_nesting();  _vmap_decrement_nesting = None
 
-        split = chunked_result.split((12,), dim = 0);  chunked_result = None
+        split = torch.functional.split(chunked_result, [12], dim = 0);  chunked_result = None
         split_1: "f32[12, 3, 4]" = split[0];  split = None
 
         output_input: "f32[3, 4, 3, 4]" = split_1.view((3, 4, 3, 4));  split_1 = None
@@ -5254,12 +5215,6 @@ class GraphModule(torch.nn.Module):
     def forward(self, L_x_: "f32[4, 3]"):
         l_x_ = L_x_
 
-        tensor: "i64[1]" = torch.tensor((12,))
-        cumsum: "i64[1]" = tensor.cumsum(dim = 0);  tensor = None
-        getitem: "i64[0]" = cumsum[slice(None, -1, None)];  cumsum = None
-        neg: "i64[0]" = getitem.neg();  getitem = None
-        unbind = neg.unbind();  neg = unbind = None
-
         chunk: "f32[12, 12]" = l_x_.new_zeros(12, 12)
 
         diagonal: "f32[12]" = chunk.diagonal(0)
@@ -5301,7 +5256,8 @@ def forward(self, L_x_: "f32[4, 3]"):
         _vmap_decrement_nesting = torch._functorch.predispatch._vmap_decrement_nesting();  _vmap_decrement_nesting = None
 
         movedim: "f32[4, 3, 12]" = results.movedim(0, -1);  results = None
-        split = movedim.split((12,), dim = -1);  movedim = None
+
+        split = torch.functional.split(movedim, [12], dim = -1);  movedim = None
         jac_out_in: "f32[4, 3, 12]" = split[0];  split = None
 
         unflatten: "f32[4, 3, 4, 3]" = jac_out_in.unflatten(-1, (4, 3));  jac_out_in = None
@@ -5334,12 +5290,6 @@ def forward(self, L_x_: "f32[4, 3]", L_y_: "f32[3, 4]"):
         l_x_ = L_x_
         l_y_ = L_y_
 
-        tensor: "i64[1]" = torch.tensor((12,))
-        cumsum: "i64[1]" = tensor.cumsum(dim = 0);  tensor = None
-        getitem: "i64[0]" = cumsum[slice(None, -1, None)];  cumsum = None
-        neg: "i64[0]" = getitem.neg();  getitem = None
-        unbind = neg.unbind();  neg = unbind = None
-
         chunk: "f32[12, 12]" = l_y_.new_zeros(12, 12)
 
         diagonal: "f32[12]" = chunk.diagonal(0)
@@ -5382,7 +5332,8 @@ def forward(self, L_x_: "f32[4, 3]", L_y_: "f32[3, 4]"):
         _vmap_decrement_nesting = torch._functorch.predispatch._vmap_decrement_nesting();  _vmap_decrement_nesting = None
 
         movedim: "f32[3, 4, 12]" = results.movedim(0, -1);  results = None
-        split = movedim.split((12,), dim = -1);  movedim = None
+
+        split = torch.functional.split(movedim, [12], dim = -1);  movedim = None
         jac_out_in: "f32[3, 4, 12]" = split[0];  split = None
 
         unflatten: "f32[3, 4, 3, 4]" = jac_out_in.unflatten(-1, (3, 4));  jac_out_in = None
@@ -5415,12 +5366,6 @@ def forward(self, L_x_: "f32[4, 3]", L_y_: "f32[3, 4]"):
         l_x_ = L_x_
         l_y_ = L_y_
 
-        tensor: "i64[1]" = torch.tensor((12,))
-        cumsum: "i64[1]" = tensor.cumsum(dim = 0);  tensor = None
-        getitem: "i64[0]" = cumsum[slice(None, -1, None)];  cumsum = None
-        neg: "i64[0]" = getitem.neg();  getitem = None
-        unbind = neg.unbind();  neg = unbind = None
-
         chunk: "f32[12, 12]" = l_y_.new_zeros(12, 12)
 
         diagonal: "f32[12]" = chunk.diagonal(0)
@@ -5468,7 +5413,8 @@ def forward(self, L_x_: "f32[4, 3]", L_y_: "f32[3, 4]"):
         aux_3: "f32[4, 3]" = aux_2[0];  aux_2 = None
 
         movedim: "f32[3, 4, 12]" = results.movedim(0, -1);  results = None
-        split = movedim.split((12,), dim = -1);  movedim = None
+
+        split = torch.functional.split(movedim, [12], dim = -1);  movedim = None
         jac_out_in: "f32[3, 4, 12]" = split[0];  split = None
 
         unflatten: "f32[3, 4, 3, 4]" = jac_out_in.unflatten(-1, (3, 4));  jac_out_in = None
@@ -5501,12 +5447,6 @@ def forward(self, L_x_: "f32[4, 3]", L_y_: "f32[3, 4]"):
         l_x_ = L_x_
         l_y_ = L_y_
 
-        tensor: "i64[1]" = torch.tensor((12,))
-        cumsum: "i64[1]" = tensor.cumsum(dim = 0);  tensor = None
-        getitem: "i64[0]" = cumsum[slice(None, -1, None)];  cumsum = None
-        neg: "i64[0]" = getitem.neg();  getitem = None
-        unbind = neg.unbind();  neg = unbind = None
-
         chunk: "f32[12, 12]" = l_x_.new_zeros(12, 12)
 
         diagonal: "f32[12]" = chunk.diagonal(0)
@@ -5557,13 +5497,15 @@ def forward(self, L_x_: "f32[4, 3]", L_y_: "f32[3, 4]"):
         _vmap_decrement_nesting = torch._functorch.predispatch._vmap_decrement_nesting();  _vmap_decrement_nesting = None
 
         movedim: "f32[3, 4, 12]" = child_8.movedim(0, -1);  child_8 = None
-        split = movedim.split((12,), dim = -1);  movedim = None
+
+        split = torch.functional.split(movedim, [12], dim = -1);  movedim = None
         jac_out_in: "f32[3, 4, 12]" = split[0];  split = None
 
         unflatten: "f32[3, 4, 4, 3]" = jac_out_in.unflatten(-1, (4, 3));  jac_out_in = None
 
         movedim_1: "f32[4, 3, 12]" = child_9.movedim(0, -1);  child_9 = None
-        split_1 = movedim_1.split((12,), dim = -1);  movedim_1 = None
+
+        split_1 = torch.functional.split(movedim_1, [12], dim = -1);  movedim_1 = None
         jac_out_in_1: "f32[4, 3, 12]" = split_1[0];  split_1 = None
 
         unflatten_1: "f32[4, 3, 4, 3]" = jac_out_in_1.unflatten(-1, (4, 3));  jac_out_in_1 = None
